handout1/mnist_model_local_data.pth (torch, 66291 bytes, 4 tensors)

fc1.weight f4 [20, 784]
000000 04 0f 78 3c ea 3a 5b bc fd 65 00 bd da 94 a4 bc
       0.015140299 -0.013380745 -0.031347264 -0.02009051
000010 c2 e8 0a bd 6b c8 03 3d 16 68 f5 3c ee 64 ad bc
       -0.03391338 0.032173555 0.029956859 -0.021166291
000020 b0 88 18 3b 84 e9 65 3c 6f 21 01 3d 90 27 b1 bc
       0.0023274831 0.014032725 0.031526025 -0.02162531
000030 b3 5d f1 bc 77 3a 09 bd 43 b6 05 3d e1 32 3a 3c
       -0.029463625 -0.033503022 0.03264452 0.01136467
000040 8a 02 e8 3c 00 2a 05 bc d3 26 e1 bc a3 b9 b3 bc
       0.028321523 -0.008127689 -0.027484333 -0.021939104
000050 9c 7c a7 3c 34 9f 6f 3c 40 b4 ce 3c 10 f8 82 bc
       0.02044516 0.014625359 0.025232434 -0.015987426
000060 fc 2a 40 3c 02 e6 ef 3c 2e aa d2 3c f6 ce f8 3c
       0.011728998 0.029284481 0.025715914 0.030372124
000070 62 6a c1 3c ee fb 27 bc 40 5f ea 3b cd f8 06 bd
       0.023610298 -0.010252936 0.007152468 -0.03295212
000080 25 37 f2 bc c6 a2 dc 3b ff 8c 1d bd 34 63 f7 bb
       -0.02956731 0.0067332713 -0.038464542 -0.0075496677
000090 89 f6 37 bd 16 80 d0 bc d2 b8 06 bd 46 d2 d1 bc
       -0.04491285 -0.025451701 -0.032891102 -0.025612962
0000a0 2b 84 f6 bc 45 bc 09 bd b9 65 b3 3c 71 c0 cb 3c
       -0.03009232 -0.033626813 0.021899091 0.024872037
0000b0 a0 9b e5 3c 9b c2 5b ba 7c bd f5 bc 69 1b 3f bb
       0.02802831 -0.00083831855 -0.02999758 -0.0029160625
0000c0 e3 5f ec bc 6e a4 fb bc 1f 4f 16 3c b8 32 93 bc
       -0.028854316 -0.030718055 0.009174137 -0.01796852
0000d0 32 92 10 bc ad 91 0f bd f2 50 68 bc c6 29 a9 3c
       -0.008823918 -0.035051037 -0.014179455 0.020649802
0000e0 ee bd b2 3c 10 88 86 bc 03 c7 9c 3c ee ee 81 bc
       0.021819081 -0.016422302 0.019137865 -0.015861
0000f0 01 43 32 3c 7a fd 00 3d 23 65 b4 3b 08 8d 1d 3b
       0.010880233 0.031491734 0.0055052205 0.002404036
000100 57 df 96 bc 2d 47 6c bd 29 f0 bb bd 22 a1 89 bd
       -0.018417044 -0.057685066 -0.09176666 -0.06720187
000110 ee 11 b7 bd af 30 da bc 5c 67 88 bd ff b9 9f bc
       -0.08938967 -0.026634542 -0.06660339 -0.01949787
000120 d1 e6 5e bd aa 34 2d bc e3 d0 0a bd f8 da 91 bd
       -0.054419342 -0.010571638 -0.033890616 -0.07121843
000130 8e 5d a2 bd 57 2d 13 bd ba 8d 97 bd a6 b4 ad bc
       -0.079280004 -0.03593191 -0.07400079 -0.021204304
000140 c1 72 04 3d 27 8f 0c 3c 9c 26 1d bc b2 0d e8 3c
       0.032336 0.008579052 -0.009591725 0.028326843
000150 92 3b d9 3c 7f d6 03 bd 1e 6b f8 bc 52 dc 98 3c
       0.026517663 -0.03218698 -0.030324515 0.018659744
000160 82 97 00 bd 1f 4b 04 3d 0d 76 1b bc 55 2e 04 bd
       -0.03139449 0.032298204 -0.009488595 -0.03227075
000170 dd 19 9d bd 1f 1d 06 bd f0 c0 83 bc e2 80 13 bc
       -0.07670949 -0.032742616 -0.01608321 -0.009002896
000180 bd 42 7d bd 41 7b 6d bd a0 c7 83 3b 55 3e 36 3d
       -0.061831225 -0.057978872 0.0040216 0.04449304
000190 a8 95 96 3d c6 99 8c 3d 98 84 9f 3c d4 0a 67 bd
       0.073527634 0.068652675 0.019472405 -0.05640681
0001a0 27 b2 b9 bc 10 b6 0b bd 9f b9 4d bc ca 83 37 bd
       -0.022667957 -0.034109175 -0.012556463 -0.04480342
0001b0 54 b8 26 bd ae 4f aa 3b 66 15 f6 bc 50 36 f5 3b
       -0.040703133 0.005197487 -0.0300395 0.007483281
0001c0 fe 11 e9 bc 11 aa 35 bc 21 9b 8d bc 14 29 dd bc
       -0.028450962 -0.01108791 -0.017285885 -0.026997127
0001d0 c8 db 26 bb e9 57 8c 3c bb 94 2f bb 40 d2 1a bc
       -0.002546059 0.017131763 -0.002679153 -0.009449542
0001e0 60 ca 26 bc 0e 28 c7 3c 37 b5 10 3d 54 b5 7d 3d
       -0.010180086 0.024311092 0.03532907 0.061940506
0001f0 26 3d 0c 3e 27 7f 0b 3e 3c aa 3b 3e ab ec 31 3e
       0.13695201 0.13622724 0.18326658 0.17375438
000200 b1 ce 69 3e 0f 31 6e 3e 8c c4 56 3e f0 22 f7 3d
       0.22832753 0.23260902 0.20973414 0.12067211
000210 eb 99 3a 3d c3 41 b6 3c 37 13 39 3b ce 7d 9e bd
       0.045556944 0.022248155 0.0028240213 -0.07738839
000220 03 f2 74 bb ae 45 43 3c eb 68 f1 bc fa 6a e0 3c
       -0.0037375696 0.011918468 -0.029468974 0.02739476
000230 0e 31 57 bc 08 d7 d6 3b 59 96 06 bd cb 69 9d 3c
       -0.013134254 0.0065563954 -0.032858226 0.019215485
000240 5a 5a 25 3d 25 32 1d 3d 25 b7 0d 3d 91 d9 6f 3d
       0.04036937 0.0383779 0.03459849 0.058557097
000250 c8 d0 4d bd e1 63 14 bd ce 23 74 bd aa 70 82 3d
       -0.050247937 -0.036228064 -0.05960446 0.06369145
000260 a7 69 aa 3d 49 d5 38 3c e8 7a 93 3d bb 0e 11 3e
       0.08320933 0.01128132 0.07201177 0.14165775
000270 b3 a2 a6 3e f2 4d 95 3e b4 cd 66 3e c2 e9 98 3e
       0.32546005 0.2916103 0.22539407 0.29865843
000280 69 6e 94 3e d0 f2 37 3e 06 3c 07 3e 41 5b 7a 3c
       0.28990486 0.1796372 0.13206491 0.015280546
000290 1b c0 9e 3c 12 86 1b 3d ae e9 d0 3c ed 0b ea 3c
       0.019378712 0.037969656 0.025502052 0.02857014
0002a0 bc a7 01 bc a1 01 25 3c 79 06 9f 3c 9c 1c 29 3d
       -0.007913526 0.010071189 0.019412266 0.04128705
0002b0 cc 8b b2 3c ff 2e c4 3d fb 47 9a 3c 81 03 bd bb
       0.021795176 0.09579276 0.018833151 -0.00576824
0002c0 96 a3 18 bd ed 05 82 bb b5 c5 8d 3c 0d 11 94 bd
       -0.037265383 -0.0039679916 0.017306188 -0.07229815
0002d0 cc e4 b9 bc 34 e3 18 bc 24 b3 ad bd e3 62 11 3c
       -0.022692107 -0.009331513 -0.08481434 0.008873674
0002e0 66 9b a7 bc ab 11 04 3e 20 8f ef 3d 5f bd 6b 3e
       -0.020459842 0.12897365 0.11697221 0.23021458
0002f0 e9 9c 3a 3e e3 d8 25 3e 01 86 3b 3e 6b 31 0a 3e
       0.18223919 0.16196017 0.18312837 0.13495414
000300 96 4f 11 3d 1b 6f 33 3d d9 65 f2 bc f1 1f 99 3c
       0.03547629 0.04380713 -0.02958958 0.018691989
000310 c2 37 1f bc 85 7d 14 3d bd c7 f4 bc 14 57 12 bd
       -0.009717884 0.036252517 -0.029880399 -0.035727575
000320 b3 36 50 3d c3 57 05 3e b8 94 d5 3c 88 0a 5d bd
       0.050833415 0.1302176 0.026071891 -0.05396512
000330 74 b4 0b 3d 1d d1 56 bd f4 5b 95 bd fd 28 9f bd
       0.03410764 -0.05244552 -0.07292929 -0.0777149
000340 5b a9 c0 bd 87 61 a0 bd 77 f8 e0 bd f6 41 09 bd
       -0.09407302 -0.07831102 -0.10984891 -0.03351017
000350 ca 2e 04 bd 2a ec f5 bb bf d8 05 3e ed c1 a2 3d
       -0.032271184 -0.0075049596 0.13070963 0.07947145
000360 77 1c 32 bc f2 93 18 3d 6d 23 33 3e ee b3 fa 3d
       -0.010871044 0.037250467 0.17493983 0.1224135
000370 62 79 af 3d 21 47 b7 3d fd 87 c1 ba e4 67 3a bb
       0.08568074 0.08949114 -0.0014765259 -0.0028443271
000380 54 1b e5 3c 18 95 22 bd 32 d8 13 bd 71 23 cf bc
       0.027967133 -0.039692968 -0.03609485 -0.025285454
000390 86 4a 54 3d 04 84 81 3d ac 14 17 3d 50 58 81 3d
       0.051828884 0.06324008 0.03688495 0.063156724
0003a0 d2 c5 ae bd 23 92 a9 bc 89 d3 87 3c 70 0f 80 bd
       -0.08533825 -0.020699566 0.01658036 -0.062529445
0003b0 07 cf 76 3c de 65 42 3d 54 98 f3 bd 97 43 c9 bd
       0.015064008 0.04746043 -0.11894289 -0.09827345
0003c0 7f fc 67 3c ea 8f a8 3d e2 6a be 3c a5 34 17 3e
       0.014159321 0.082305744 0.023244325 0.14766176
0003d0 fa 3e 6b ba 5e 5a 8f 39 d2 0f c0 3d 18 65 f9 3d
       -0.0008973923 0.00027342414 0.093780175 0.12177485
0003e0 39 16 b1 3d af b0 8b 3d 65 78 3e 3d ee 03 c9 3c
       0.08646817 0.06820809 0.046501536 0.024538007
0003f0 d0 84 50 3b b7 f9 97 3c 91 1a 49 bd 0c 54 44 bd
       0.0031817444 0.01855169 -0.0490976 -0.047931716

fc1.bias f4 [20]
000000 9a f2 3d be da 76 da 3e 08 a8 5b 3e cf 39 a5 be
       -0.18549576 0.42668802 0.21450818 -0.32270667
000010 6d 57 62 be 08 7d 0c 3f 64 db 9b bd 95 0d e9 3e
       -0.22103663 0.5487828 -0.07610205 0.45518175
000020 e2 53 39 3e 4f 95 a4 3e 58 67 a7 3c de da df bd
       0.18098405 0.32145163 0.02043502 -0.109304175
000030 e8 35 b4 3d b8 1a ef bd bd a1 1a bd 7b 6f cc 3d
       0.08799344 -0.11675018 -0.037751902 0.09982201
000040 1e 05 4b 3e 5f f7 c4 3e 9b 81 a8 3b a6 25 51 3d
       0.19826171 0.3846998 0.0051424033 0.051061295

fc2.weight f4 [10, 20]
000000 93 e6 0c bb 8d 31 97 3d c2 2e b5 3e d8 8b c4 3e
       -0.0021499738 0.07382498 0.35387236 0.38387942
000010 9c a3 80 3e 71 bb 2e 3f a9 11 01 bf 0a 7c 80 bf
       0.25124824 0.6825476 -0.5041757 -1.0037854
000020 b3 69 1e bf a6 eb 2d bf 95 6a 18 3e c3 35 4b 3b
       -0.61880034 -0.67937696 0.14884408 0.0031007386
000030 6b 4c 47 3f 33 a1 f1 be e8 29 4e bd 1e 32 66 bf
       0.7785098 -0.47193298 -0.050332934 -0.8992022
000040 c9 91 36 bf e2 96 8b bd 57 1c 7d 3f 93 40 83 be
       -0.713162 -0.06815888 0.9887137 -0.25635204
000050 36 76 1d 3e 53 55 4f 3f 2f 98 58 bf 5c b1 e8 3d
       0.15377125 0.8098957 -0.84607214 0.113619536
000060 18 0e 8f be 8e 99 77 3f b7 59 5a bd 35 f0 40 bf
       -0.2794044 0.9671868 -0.053308215 -0.75366527
000070 43 3a 4b bd fe 7c 6a 3f b6 e6 4c bc fa 61 be 3e
       -0.04961611 0.9159697 -0.012506178 0.37184125
000080 16 57 bf be fd 59 46 3f e0 ed 0b be 6d 3d f9 3e
       -0.3737113 0.7748106 -0.13664961 0.48679677
000090 38 f9 10 bf 84 ec 21 bf a3 51 09 bf af 48 13 3f
       -0.5663028 -0.6325152 -0.5364019 0.5753278
0000a0 1c 92 53 3f 05 cd 02 3e ec d2 98 be 5c 21 8e bf
       0.8264482 0.12773521 -0.2984842 -1.110393
0000b0 29 96 96 3f 61 ea 27 be ca bd a3 3c f3 cc 5d bf
       1.1764575 -0.16398002 0.01998796 -0.8664085
0000c0 c1 75 5d bf 12 3a 8d be ed 02 3d be 23 59 35 3f
       -0.86507803 -0.27583367 -0.18458147 0.70839137
0000d0 5d 5c 8d be 50 af e3 3e 53 4a 90 bf 3e ec ba 3e
       -0.2760953 0.4446969 -1.1272682 0.36508363
0000e0 98 5d 7d bf 0a d2 a9 3f 74 8d 0c 3f e8 b7 b1 3d
       -0.9897094 1.3267224 0.5490334 0.086776555
0000f0 f4 09 d3 3e 2a 5d 8a bf 35 00 c8 be 89 18 b8 3e
       0.4121853 -1.0809681 -0.39062658 0.3595622
000100 82 6e 7b 3f b2 c4 4c 3e 7b 68 4d 3f bb 0b 90 be
       0.98215497 0.19996908 0.8023755 -0.2813395
000110 f8 30 83 be 9b 73 d3 bc d2 c9 86 3c 8c 98 98 bf
       -0.25623298 -0.02581196 0.016453657 -1.1921554
000120 44 00 3e 3f 63 16 42 3f 37 38 29 be fe ff 27 3f
       0.74219155 0.7581541 -0.1652535 0.6562499
000130 7b 19 80 3f 61 11 c5 be f2 e7 2e bf e2 7d 4d 3f
       1.0007776 -0.38489822 -0.6832267 0.80270207
000140 2c 4a 15 3f a0 d7 1c bf c9 64 6c 3e c9 a6 b2 3e
       0.583163 -0.6126652 0.23085321 0.34892872
000150 ed 68 bc bf a8 d5 94 be 6f ba 04 3f e6 7b 1d 3f
       -1.4719521 -0.29069257 0.51846975 0.6151718
000160 fa e0 1a 3f ae 3b 2a 3e 53 75 d9 3d 1b 5a 98 3e
       0.60499537 0.16624328 0.10618081 0.29756245
000170 3e 85 6b bf 66 95 5a 3f a0 d0 3f bf 23 b0 61 bf
       -0.92000186 0.85384214 -0.7492771 -0.8815939
000180 cf 53 3f 3f 7f 75 32 3f 4c c8 1a 3e f5 7d 24 be
       0.74737257 0.69710535 0.1511547 -0.16063674
000190 38 63 91 be 91 bc 5a 3f 79 6f 0c bf 81 b2 12 bf
       -0.2839601 0.8544398 -0.54857594 -0.57303625
0001a0 62 67 17 3f e3 bc 08 3f 75 4e aa 3e ef b7 2c 3f
       0.59142125 0.5341322 0.33262983 0.6746816
0001b0 c5 70 1c 3f 08 ba 06 bf 2d 55 ff bd 70 4c 95 bf
       0.6110957 -0.5262761 -0.12467418 -1.1663952
0001c0 40 c5 48 3f c2 82 bb bf 6b e7 dd 3f f8 05 80 3e
       0.7842598 -1.4649279 1.7336248 0.25004554
0001d0 f9 5e 75 3f d8 ce c0 3d b6 15 a3 be f1 ae 56 bf
       0.9584804 0.09414452 -0.31852502 -0.8386069
0001e0 7b 7c 21 bf 1a d9 03 3f b5 0e 2f bf 4d 7c 2c 3f
       -0.6308057 0.51503146 -0.68381816 0.6737717
0001f0 24 2c aa bf 54 f1 e8 3c 17 e3 30 bf ba bc bd bd
       -1.3294721 0.028435387 -0.6909651 -0.09264512
000200 c9 bb 5f 3e ac 93 ae be 46 78 1b be 7c 50 cb 3e
       0.21848978 -0.3409704 -0.151826 0.39709842
000210 a1 fb fa be e6 92 aa bd 48 ec ae 3f 9d e2 7d 3d
       -0.49020103 -0.083288 1.3665857 0.061983693
000220 15 0e 23 bf ea e7 ba 3e 15 99 b6 3f 73 dc 89 3d
       -0.6369336 0.3650506 1.4265467 0.067315005
000230 f2 61 99 bf fe 3d 3d bf 18 52 20 3f 7f 3a 80 3e
       -1.1983016 -0.7392272 0.62625265 0.2504463
000240 74 b0 81 3f 12 51 84 3f c5 d7 e9 3b 44 6f 00 3f
       1.0131974 1.0337241 0.0071363174 0.5016978
000250 d2 18 dd be ec 36 8d 3f 40 e4 0d 3d 8d 42 f2 3e
       -0.43183 1.1032386 0.034641504 0.473164
000260 7f 77 4e 3d 41 f3 0c 3f e3 a0 89 be ce 2c 88 bf
       0.05040693 0.55058676 -0.2688056 -1.0638673
000270 27 d6 0f bf 1a 02 9c 3d 4d 20 7a bf 8f 88 5a 3e
       -0.56186146 0.07617588 -0.9770554 0.21341155
000280 16 06 3c 3f 44 4e d3 3c 3e ee 8f 3e 13 c2 0c be
       0.73446786 0.025794156 0.28111452 -0.13745908
000290 9a 72 dd 3d 52 5b 99 bf a3 5a 0b bf bc e2 45 3f
       0.10812874 -1.1980994 -0.54435176 0.77299094
0002a0 ae fe 52 3f 6c 99 00 bf ce 0d 0a bd 8c 9f a7 3e
       0.8241986 -0.50234103 -0.03370457 0.32738912
0002b0 81 d9 16 3f af 17 0f bf a7 6a c8 be f5 d5 f8 3e
       0.58925635 -0.55895513 -0.3914387 0.48600736
0002c0 69 28 57 bf 13 7e ae bf e9 e7 9a be a8 4a de be
       -0.84046036 -1.3632225 -0.30255058 -0.43416333
0002d0 c1 e7 0d bf 12 f2 b9 bd f2 44 c1 3f c4 60 8d bc
       -0.55431753 -0.090793744 1.5099165 -0.017258056
0002e0 ca 16 10 bf 54 c3 8f bf b8 63 2c 3e b6 0d a2 3e
       -0.56284773 -1.1231484 0.16834915 0.31651086
0002f0 58 7c 53 3d 26 57 10 be 86 d5 5a be ab e1 2a be
       0.051632255 -0.14095744 -0.21370515 -0.16687648
000300 41 df d3 be 22 c8 04 bf bb a1 6f bb 84 86 e1 3e
       -0.41381267 -0.5186788 -0.0036564905 0.4404794
000310 b5 12 a2 3f b9 25 e5 be cd 1e b3 be d3 65 f8 3d
       1.2661959 -0.44755343 -0.34984437 0.121287964

fc2.bias f4 [10]
000000 8d c0 83 be da 8f 5f 3d 54 f8 9e 3d 29 11 98 be
       -0.25732842 0.054580547 0.077622086 -0.29700592
000010 f3 45 b0 3d cf f3 b5 3e 1a 0c 63 be 30 71 c6 3d
       0.08607092 0.35537574 -0.22172585 0.096895576
000020 7f 33 a4 be ad e8 83 3e
       -0.32070538 0.25763455
